results/model_state.pth (torch, 10035 bytes, 5 tensors)

mean_module.0.weights f4 [6, 1]
000000 6c 16 73 3f 1c 4f 3a 40 04 d8 99 40 e0 b6 b4 40
       0.9495609 2.9110785 4.807619 5.6473236
000010 fe ee e4 40 cc 37 06 40
       7.154174 2.0971556

mean_module.1.weights f4 [6, 1]
000000 bd 4e 45 3f fd 3a 2f 40 f4 d7 94 40 0a 28 ae 40
       0.7707327 2.7379754 4.6513615 5.4423876
000010 d9 e9 bc 40 0b a1 81 3f
       5.903546 1.0127271

x_covar_module.raw_lengthscale f4 [1, 5]
000000 c6 2b 6f 40 9e 61 6c 40 34 9a 6e 40 56 f7 46 40
       3.7370467 3.693458 3.7281618 3.1088462
000010 91 e5 b2 3f
       1.3976308

task_covar_module.covar_factor f4 [2, 1]
000000 98 3f 60 40 6b 71 7f 40
       3.5038815 3.9912975

task_covar_module.raw_var f4 [2]
000000 39 45 81 3f 57 e3 7b 40
       1.009925 3.9357507
