results/model_state.pth (torch, 42089 bytes, 56 tensors)

mean_module.0.weights f4 [6, 1]
00000000: d0c9 963f 960a 3740 2e61 2040 8f99 3f40
00000010: 2216 8240 7fa0 1840
1.1780338 2.860021 2.5059314 2.9937475 4.0652018 2.384796

mean_module.1.weights f4 [6, 1]
00000000: dbaa c43f dd93 1c40 9bb3 5040 0bda 3640
00000010: 1be9 8940 d413 0e40
1.5364641 2.4465249 3.2609622 2.8570583 4.3097053 2.2199602

mean_module.2.weights f4 [6, 1]
00000000: 00d0 7e3f b595 2940 7c10 4740 23ae 2140
00000010: fa89 1c40 518a 0f40
0.9953613 2.6497624 3.1103811 2.5262535 2.4459214 2.2428172

mean_module.3.weights f4 [6, 1]
00000000: 804b 8e3f 0d06 2a40 bf93 3c40 f35d 2140
00000010: db08 8140 b54b 0e40
1.1116791 2.6566193 2.9465177 2.5213592 4.032331 2.2233708

mean_module.4.weights f4 [6, 1]
00000000: e343 8e3f cbde 1940 7f1f 5a40 f802 3440
00000010: 4f92 8540 c362 fb3f
1.1114467 2.4042232 3.4081724 2.8126812 4.17411 1.9639515

mean_module.5.weights f4 [6, 1]
00000000: 9e33 d03f 7c5b 3440 06b2 8640 4f3b a940
00000010: d7ee d440 60ac 873f
1.6265752 2.8180838 4.2092314 5.28849 6.6541553 1.059948

mean_module.6.weights f4 [6, 1]
00000000: f89d f03f ba28 0a40 c474 4440 2ef0 2740
00000010: f4fe 4c40 3ab4 963f
1.8798208 2.1587358 3.0696268 2.6240344 3.203061 1.1773751

mean_module.7.weights f4 [6, 1]
00000000: ec3d c73f 6bae 2940 7594 4340 64af 5f40
00000010: 7f04 8140 f524 963f
1.5565772 2.6512706 3.055936 3.49508 4.031799 1.1730028

mean_module.8.weights f4 [6, 1]
00000000: 49c8 d23f c88a fb3f 7647 3b40 7813 2d40
00000010: 9749 5540 f46b 923f
1.6467372 1.9651728 2.9262366 2.7043133 3.3326166 1.1439195

mean_module.9.weights f4 [6, 1]
00000000: 96d1 ab3f 19eb 1840 e309 5740 890c 6740
00000010: 2621 8940 68c7 8e3f
1.3423336 2.3893492 3.3599784 3.61014 4.2852964 1.1154604

mean_module.10.weights f4 [6, 1]
00000000: e477 e53f a7db 1c40 732b 3e40 86f1 2c40
00000010: c73e 5440 1af4 9a3f
1.7927213 2.4509065 2.971402 2.7022414 3.3163316 1.2105744

mean_module.11.weights f4 [6, 1]
00000000: dad4 483f ade7 4440 e1ae 8140 3d5e a540
00000010: 7ddf bf40 2260 843f
0.78449786 3.0766404 4.0525975 5.1677537 5.9960313 1.0341837

mean_module.12.weights f4 [6, 1]
00000000: 64b7 8f3f c64f 2640 7bc2 8240 1323 c240
00000010: b173 cc40 b83c 713f
1.1227841 2.598619 4.0862403 6.0667815 6.3891225 0.94233274

mean_module.13.weights f4 [6, 1]
00000000: 9426 cb3f 2df3 0940 3e95 4240 cee0 8540
00000010: 6d15 9740 0566 943f
1.5871148 2.1554673 3.040359 4.183692 4.7213655 1.1593634

mean_module.14.weights f4 [6, 1]
00000000: 363a ec3f 82bf fc3f 073b 4940 24ed 0740
00000010: a074 3f40 0560 963f
1.8455265 1.9745944 3.1442277 2.123849 2.9914932 1.1748053

mean_module.15.weights f4 [6, 1]
00000000: 1326 9a3f 82e0 0e40 5391 5140 d0b6 2e40
00000010: 6ff2 6240 84e8 923f
1.2042869 2.2324529 3.274495 2.729908 3.546047 1.1477208

mean_module.16.weights f4 [6, 1]
00000000: 873d 823f 3244 2040 6317 3240 2206 4540
00000010: 4307 5d40 577c 943f
1.0175027 2.5041623 2.7826774 3.0784993 3.4535682 1.1600446

mean_module.17.weights f4 [6, 1]
00000000: 3952 ab3f 8433 2140 8af3 7d40 5cb3 8e40
00000010: 99dc cf40 ffe5 913f
1.3384467 2.5187693 3.9679894 4.4593945 6.4956784 1.1398314

mean_module.18.weights f4 [6, 1]
00000000: 3691 c03f 4e92 1740 98c3 5740 59ac 1b40
00000010: 26c1 6a40 8286 943f
1.5044315 2.3683047 3.371313 2.4323943 3.6680388 1.1603549

mean_module.19.weights f4 [6, 1]
00000000: 8450 c03f 3a1d 2f40 2614 5740 8404 3740
00000010: 97bd 8840 2213 953f
1.5024571 2.7361588 3.3606048 2.8596506 4.2731433 1.1646464

mean_module.20.weights f4 [6, 1]
00000000: 315c c03f c050 1040 0687 5f40 97d1 9140
00000010: 71ae a940 196e 913f
1.5028135 2.2549286 3.4926162 4.5568347 5.302544 1.1361724

mean_module.21.weights f4 [6, 1]
00000000: acc6 f23f 8cdc 2240 69dd 1640 59af 1340
00000010: d8c2 4740 9b8a 953f
1.896688 2.544711 2.3572638 2.3075774 3.1212673 1.1682924

mean_module.22.weights f4 [6, 1]
00000000: 8b00 d83f 35bf 1d40 d2c7 3840 e118 3e40
00000010: 1999 5c40 a984 9c3f
1.6875166 2.4647954 2.887196 2.9702685 3.4468443 1.2227985

mean_module.23.weights f4 [6, 1]
00000000: 9b4a ac3f 1f06 1c40 8627 5d40 434e 5640
00000010: 9647 9d40 d70d 943f
1.3460268 2.4378736 3.4555373 3.3485267 4.9149885 1.1566724

mean_module.24.weights f4 [6, 1]
00000000: b5d5 0440 9336 ff3f f6eb 2440 f080 0b40
00000010: fc77 4e40 d9ba 9d3f
2.0755436 1.993853 2.576902 2.1797447 3.2260733 1.2322646

mean_module.25.weights f4 [6, 1]
00000000: 6a09 cd3f d5fa 3040 3a24 6840 8e3a 6a40
00000010: 7ae8 9440 22f8 953f
1.6018498 2.7653096 3.627211 3.659824 4.6533785 1.1716349

mean_module.26.weights f4 [6, 1]
00000000: 77b8 c33f 51eb 2b40 d651 5540 c983 7d40
00000010: 6f5e 9a40 2dad 8c3f
1.5290669 2.6862376 3.3331199 3.9611685 4.8240275 1.0990349

mean_module.27.weights f4 [6, 1]
00000000: a587 ca3f 665e 1440 9a52 6c40 3e69 5340
00000010: 5656 9540 52ae 8b3f
1.5822645 2.3182616 3.6925416 3.3032985 4.666789 1.0912573

mean_module.28.weights f4 [6, 1]
00000000: abd7 c63f 8220 0740 f174 4e40 2e53 6640
00000010: 96b5 9640 0060 943f
1.5534567 2.1113591 3.2258875 3.598827 4.7096663 1.1591797

mean_module.29.weights f4 [6, 1]
00000000: 4865 c53f 6e6b 0540 d43c 4140 b421 2d40
00000010: a767 4b40 82f4 8e3f
1.5421534 2.084682 3.0193377 2.705182 3.1782014 1.1168368

mean_module.30.weights f4 [6, 1]
00000000: b4e6 d53f dbd9 3a40 b608 5e40 712f 8040
00000010: a2dd a840 f3bd 913f
1.671103 2.9195468 3.4692817 4.005791 5.277055 1.1386093

mean_module.31.weights f4 [6, 1]
00000000: c832 a23f 9fd6 1f40 eccd 6d40 22f3 7e40
00000010: d2aa a040 cdc8 8b3f
1.2671747 2.4974744 3.7156935 3.9835896 5.020852 1.0920655

mean_module.32.weights f4 [6, 1]
00000000: 4659 c23f 22f3 2240 b545 3740 fdc2 3640
00000010: fd4c 8740 1eef 923f
1.5183494 2.5460896 2.8636296 2.8556511 4.228148 1.1479223

mean_module.33.weights f4 [6, 1]
00000000: 22c8 ed3f 014d 0740 d674 1840 346e 4740
00000010: 8fcd 8a40 3392 903f
1.8576701 2.114075 2.382131 3.1161013 4.3375926 1.1294616

mean_module.34.weights f4 [6, 1]
00000000: a5b0 e83f 212e 1940 c6f4 2340 92f8 4340
00000010: 6734 8540 8f51 a33f
1.8178908 2.3934405 2.5618148 3.0620465 4.162647 1.2759265

mean_module.35.weights f4 [6, 1]
00000000: 405b bf3f b21a 2040 f8d3 5f40 21d5 8f40
00000010: e43d b340 ea6f 963f
1.4949722 2.5016294 3.4973125 4.4947667 5.601305 1.1752903

mean_module.36.weights f4 [6, 1]
00000000: 103f d03f 454d 3340 f64a 4740 c8a9 5f40
00000010: 8792 8440 c214 923f
1.6269245 2.8015912 3.1139503 3.4947376 4.1428866 1.1412585

mean_module.37.weights f4 [6, 1]
00000000: 0eb3 0140 1cb2 0d40 6e22 3940 5ebe 2040
00000010: 6bfc 3840 78f1 983f
2.0265536 2.213996 2.8927264 2.511619 2.8904064 1.194869

mean_module.38.weights f4 [6, 1]
00000000: 047f d93f fdca 0340 4c51 3440 968a 1d40
00000010: 72ff 5240 ccac 933f
1.6991887 2.0592644 2.817462 2.4615836 3.2968411 1.1537108

mean_module.39.weights f4 [6, 1]
00000000: c31b d93f d6ec fb3f 0e9d 5a40 fdde 6740
00000010: 5e53 9b40 99f4 953f
1.6961597 1.9681652 3.4158359 3.6229851 4.8539267 1.171527

mean_module.40.weights f4 [6, 1]
00000000: 9319 c33f a2c2 2440 07f0 5540 686c 7640
00000010: fc84 8a40 b7ea 873f
1.524218 2.5743794 3.342775 3.8503666 4.3287334 1.0618504

mean_module.41.weights f4 [6, 1]
00000000: 3f3a 9d3f bd74 1c40 51c6 6440 2cdc 8240
00000010: ebda 9740 4f0c 8d3f
1.22834 2.4446251 3.5746043 4.0893764 4.7454734 1.1019381

mean_module.42.weights f4 [6, 1]
00000000: 4394 d83f 3b33 3240 875d 5f40 cad6 6840
00000010: 934c 9040 a8a3 893f
1.6920246 2.7843769 3.4900835 3.6381097 4.5093474 1.0753069

mean_module.43.weights f4 [6, 1]
00000000: 57fa c53f a327 0d40 b893 4540 7e3c 2540
00000010: ae36 6840 ae96 993f
1.5467023 2.2055442 3.087141 2.5818172 3.6283374 1.1999109

mean_module.44.weights f4 [6, 1]
00000000: 9c23 953f eb5a 0f40 9e3a 7040 a51b 6640
00000010: 8e78 7c40 1702 933f
1.1651492 2.2399242 3.7535777 3.5954373 3.944858 1.1485013

mean_module.45.weights f4 [6, 1]
00000000: f4cf fa3f 0203 1440 a8d7 6240 4310 3840
00000010: 0a13 5940 8544 9b3f
1.9594712 2.3126836 3.5444126 2.8759925 3.391787 1.2130286

mean_module.46.weights f4 [6, 1]
00000000: db8f d13f 0d5f 1640 71eb 2c40 2c67 3740
00000010: 82ce 7240 cc7f 953f
1.6372026 2.3495514 2.7018702 2.865672 3.7938542 1.1679626

mean_module.47.weights f4 [6, 1]
00000000: 6311 d43f c8cf 1840 efe1 4140 6ed8 7d40
00000010: d0f1 ad40 d679 8b3f
1.6567806 2.387682 3.029415 3.9663348 5.435768 1.0896556

mean_module.48.weights f4 [6, 1]
00000000: 240e b33f e8e4 4240 786d 6f40 dd81 8140
00000010: ce46 a740 ad21 953f
1.398869 3.0452213 3.7410564 4.0471025 5.227393 1.1650902

mean_module.49.weights f4 [6, 1]
00000000: 44d3 ac3f e04c 6040 05f8 9640 0c37 b240
00000010: 73bf f140 fb87 813f
1.3501973 3.504692 4.717776 5.5692196 7.5546203 1.0119623

x_covar_module.raw_lengthscale f4 [1, 5]
00000000: a258 b840 991f bc40 0c8a ae40 132d 8740
00000010: cad3 6840
5.7608194 5.878857 5.4543514 4.224252 3.6379266

t_covar_module.raw_mixture_weights f4 [4]
00000000: d1fc a93f d1fc a93f d1fc a93f d1fc a93f
1.3280278 1.3280278 1.3280278 1.3280278

t_covar_module.raw_mixture_means f4 [4, 1, 1]
00000000: a9aa 3e3f a9aa 3e3f a9aa 3e3f a9aa 3e3f
0.74479157 0.74479157 0.74479157 0.74479157

t_covar_module.raw_mixture_scales f4 [4, 1, 1]
00000000: 42a2 0f3f 42a2 0f3f 42a2 0f3f 42a2 0f3f
0.5610696 0.5610696 0.5610696 0.5610696

task_covar_module.covar_factor f4 [50, 1]
00000000: d44a 2b40 3c51 2940 55d0 6540 0521 4b40
00000010: daeb 4040 80c9 863f bd95 2740 a909 1240
00000020: 21ad 3240 606c 0f40 3983 3240 4a06 863f
00000030: f312 803f 38a0 0940 ad4f 3140 c174 2840
00000040: 1a0d 2e40 9b6f c83f 0dc2 2a40 382c 1c40
00000050: ee72 f63f 2cf1 3240 15aa 2e40 8c64 2640
00000060: 9521 3240 78be 1640 c4ae 0340 17ba 0940
00000070: c5e2 0a40 a127 3940 731e f73f 515f 0240
00000080: a113 2440 1371 1e40 a49f 2940 7b3b f33f
00000090: 2b98 1b40 611d 4840 5af8 3640 298e 1240
000000a0: 6b80 1840 80e8 0040 5a70 ff3f dd4a 2240
000000b0: e83b 1a40 1cfa 1f40 6b2d 2e40 bd4a fb3f
000000c0: 167b 0040 71a6 1a3f
2.6764421 2.6455832 3.5908406 3.1738904 3.0143952 1.0530243 2.6185143 2.2818396
2.791817 2.2409897 2.7892592 1.0470669 1.0005783 2.150404 2.770488 2.632126
2.7195497 1.5659059 2.668094 2.440199 1.9253824 2.79597 2.729131 2.599887
2.7832997 2.3553753 2.0575418 2.151983 2.170091 2.8930438 1.9306167 2.0370677
2.563698 2.4756515 2.6503687 1.9002527 2.4311626 3.1267931 2.8589082 2.2899268
2.382838 2.0141907 1.9956162 2.5358193 2.4099064 2.4996405 2.721522 1.9632183
2.0075126 0.6041022

task_covar_module.raw_var f4 [50]
00000000: 7f14 703f 8f90 3dc0 f544 fa3f 926f f43f
00000010: cebe cf3f 9b72 17c0 a044 b13f be65 3940
00000020: 21dd 6bbe 03fa d33f 04e0 a13f 655f 1040
00000030: 78f0 2340 efe9 d6be dbd6 5a3f b174 80bf
00000040: 57c0 ae3f 7a88 cb3f d72b 7b3f 06b8 e53f
00000050: ca06 4cc0 609e 563f 555a 8b3f c3a0 2bc0
00000060: bfcd 9b3f 9158 3cc0 d81e c83e e5df ee3f
00000070: 0bce fe3f a425 963f b322 e3be 265c f6bf
00000080: 3cc8 593f 352c 1c40 29da efbf d399 1ac0
00000090: d784 9a3e d59a 2d3f 4699 243f 8583 5dc0
000000a0: c8b3 893e 472b 17c0 6e16 aebe c5ec 4b3f
000000b0: 16b9 91bc cfa1 1a3f 91fc 56bf 4d20 0140
000000c0: c853 dcbf 7bce 2e40
0.93781275 -2.9619482 1.9552294 1.9096549 1.6230104 -2.36637 1.3849068 2.8968349
-0.23033573 1.6560673 1.2646489 2.2558224 2.561552 -0.41975352 0.85484093 -1.0035611
1.3652447 1.5901024 0.9811377 1.7946784 -3.1879144 0.8383541 1.0886942 -2.681687
1.2172164 -2.9429057 0.39086032 1.8662077 1.9906629 1.1730237 -0.4436241 -1.9246871
0.8507116 2.4401982 -1.8738452 -2.4156387 0.30179474 0.6781438 0.64296377 -3.4611523
0.26894975 -2.3620164 -0.34001487 0.79658157 -0.017788451 0.6040315 -0.83979136 2.0175965
-1.7213068 2.7313526
