results/synthetic_MAP_model_state.pth (torch, 9385 bytes, 8 tensors)

mean_module.0.weights f4 [6, 1]
0	0x3f877eee	1.0585611
1	0x4018cd81	2.387543
2	0x4040d714	3.0131273
3	0x4071e891	3.7798197
4	0x409f6afb	4.981809
5	0x3ed778b4	0.42084277

mean_module.1.weights f4 [6, 1]
0	0x3f766801	0.9625245
1	0x400dd1e8	2.2159367
2	0x4036e3d8	2.8576565
3	0x408329ca	4.098851
4	0x408a8989	4.329289
5	0x3e401370	0.18757415

x_covar_module.raw_lengthscale f4 [1, 5]
0	0x40656e6f	3.5848653
1	0x40684361	3.6291125
2	0x407b16f3	3.9232757
3	0x406f779f	3.741676
4	0x3f9436da	1.1579239

t_covar_module.raw_mixture_weights f4 [4]
0	0x3f8adbb4	1.0848298
1	0x3f8adbb4	1.0848298
2	0x3f8adbb4	1.0848298
3	0x3f8adbb4	1.0848298

t_covar_module.raw_mixture_means f4 [4, 1, 1]
0	0x3f37a0a0	0.7172947
1	0x3f37a0a0	0.7172947
2	0x3f37a0a0	0.7172947
3	0x3f37a0a0	0.7172947

t_covar_module.raw_mixture_scales f4 [4, 1, 1]
0	0x3f144ae9	0.57926804
1	0x3f144ae9	0.57926804
2	0x3f144ae9	0.57926804
3	0x3f144ae9	0.57926804

task_covar_module.covar_factor f4 [2, 1]
0	0x3fdbacd2	1.7162116
1	0x40352251	2.8302195

task_covar_module.raw_var f4 [2]
0	0xbfb2fb0f	-1.3982867
1	0x407c52e7	3.94256
